…
  Train pairs: 700 | Val respondents: 75
  Activity class weights (inv-sqrt-freq, ACTIVITY_BOOSTS=1):
    class  0: 2.210
    class  1: 0.530
    class  2: 1.065
    class  3: 1.268
    class  4: 0.262
    class  5: 0.762
    class  6: 0.894
    class  7: 1.424
    class  8: 1.405
    class  9: 0.421
    class 10: 1.103
    class 11: 2.359
    class 12: 2.373
    class 13: 1.977
  AT_HOME observed rate: 0.7188  pos_weight: disabled
  Marginal-bias loss weight: LAMBDA_MARG=0.1  MARG_MODE=global
  COP pos_weight: disabled (COP_POS_WEIGHT=0)
[2/4] Building model...
  Parameters: 302,392
ConditionalTransformer(
  (act_embedding): Embedding(14, 16)
  (slot_linear): Linear(in_features=26, out_features=64, bias=True)
  (cycle_embedding): Embedding(4, 16)
  (cls_mlp): Sequential(
    (0): Linear(in_features=92, out_features=256, bias=True)
    (1): GELU(approximate='none')
    (2): Linear(in_features=256, out_features=64, bias=True)
  )
  (strata_linear): Linear(in_features=3, out_features=64, bias=False)
  (encoder): TransformerEncoder(
    (layers): ModuleList(
      (0-1): 2 x TransformerEncoderLayer(
        (self_attn): MultiheadAttention(
          (out_proj): NonDynamicallyQuantizableLinear(in_features=64, out_features=64, bias=True)
        )
        (linear1): Linear(in_features=64, out_features=256, bias=True)
        (dropout): Dropout(p=0.1, inplace=False)
        (linear2): Linear(in_features=256, out_features=64, bias=True)
        (norm1): LayerNorm((64,), eps=1e-05, elementwise_affine=True)
        (norm2): LayerNorm((64,), eps=1e-05, elementwise_affine=True)
        (dropout1): Dropout(p=0.1, inplace=False)
        (dropout2): Dropout(p=0.1, inplace=False)
      )
    )
    (norm): LayerNorm((64,), eps=1e-05, elementwise_affine=True)
  )
  (decoder): FiLMTransformerDecoder(
    (layers): ModuleList(
      (0-1): 2 x TransformerDecoderLayer(
        (self_attn): MultiheadAttention(
          (out_proj): NonDynamicallyQuantizableLinear(in_features=64, out_features=64, bias=True)
        )
        (multihead_attn): MultiheadAttention(
          (out_proj): NonDynamicallyQuantizableLinear(in_features=64, out_features=64, bias=True)
        )
        (linear1): Linear(in_features=64, out_features=256, bias=True)
        (dropout): Dropout(p=0.1, inplace=False)
        (linear2): Linear(in_features=256, out_features=64, bias=True)
        (norm1): LayerNorm((64,), eps=1e-05, elementwise_affine=True)
        (norm2): LayerNorm((64,), eps=1e-05, elementwise_affine=True)
        (norm3): LayerNorm((64,), eps=1e-05, elementwise_affine=True)
        (dropout1): Dropout(p=0.1, inplace=False)
        (dropout2): Dropout(p=0.1, inplace=False)
        (dropout3): Dropout(p=0.1, inplace=False)
      )
    )
    (films): ModuleList(
      (0-1): 2 x FiLMLayer(
        (gen): Linear(in_features=95, out_features=128, bias=True)
      )
    )
    (norm): LayerNorm((64,), eps=1e-05, elementwise_affine=True)
  )
  (act_head): Linear(in_features=64, out_features=14, bias=True)
  (home_head): Linear(in_features=64, out_features=1, bias=True)
  (cop_head): Linear(in_features=64, out_features=9, bias=True)
)
[3/4] Training...
Epoch   1/5: train_loss=3.8071  act=3.0804  home=0.7274  cop=1.1595  marg=0.1519  |  val_JS=0.3589  home_gap=0.2234  val_score=0.4706  lr=4.40e-05  grad_norm=8.642  (1s)
  ✓ New best model saved (val_score=0.4706  val_JS=0.3589  home_gap=0.2234)
Epoch   2/5: train_loss=2.9339  act=2.3981  home=0.6313  cop=0.7177  marg=0.0483  |  val_JS=0.2674  home_gap=0.2360  val_score=0.3854  lr=5.00e-05  grad_norm=3.610  (1s)
…
